…
I0315 10:24:18.077517  4688 net.cpp:296] The NetState phase (0) differed from the phase (1) specified by a rule in layer accuracy
I0315 10:24:18.077517  4688 net.cpp:53] Initializing net from parameters: 
name: "CaffeNet"
state {
  phase: TRAIN
  level: 0
  stage: ""
}
layer {
  name: "data"
  type: "Data"
  top: "data"
  top: "label"
  include {
    phase: TRAIN
  }
  transform_param {
    mirror: true
    crop_size: 64
    mean_file: "images/mean.binaryproto"
  }
  data_param {
    source: "C:\\caffe\\bin\\images\\train_lmdb"
    batch_size: 256
    backend: LMDB
  }
}
layer {
  name: "conv1"
  type: "Convolution"
  bottom: "data"
  top: "conv1"
  param {
    lr_mult: 1
    decay_mult: 1
  }
  param {
    lr_mult: 2
    decay_mult: 0
  }
  convolution_param {
    num_output: 96
    kernel_size: 11
    stride: 4
    weight_filler {
      type: "gaussian"
      std: 0.01
    }
    bias_filler {
      type: "constant"
      value: 0
    }
  }
}
layer {
  name: "relu1"
  type: "ReLU"
  bottom: "conv1"
  top: "conv1"
}
layer {
  name: "pool1"
  type: "Pooling"
  bottom: "conv1"
  top: "pool1"
  pooling_param {
    pool: MAX
    kernel_size: 3
    stride: 2
  }
}
layer {
  name: "norm1"
  type: "LRN"
  bottom: "pool1"
  top: "norm1"
  lrn_param {
    local_size: 5
    alpha: 0.0001
    beta: 0.75
  }
}
layer {
  name: "conv2"
  type: "Convolution"
  bottom: "norm1"
  top: "conv2"
  param {
    lr_mult: 1
    decay_mult: 1
  }
  param {
    lr_mult: 2
    decay_mult: 0
  }
  convolution_param {
    num_output: 256
    pad: 2
    kernel_size: 5
    group: 2
    weight_filler {
      type: "gaussian"
      std: 0.01
    }
    bias_filler {
      type: "constant"
      value: 1
    }
  }
}
layer {
  name: "relu2"
  type: "ReLU"
  bottom: "conv2"
  top: "conv2"
}
layer {
  name: "pool2"
  type: "Pooling"
  bottom: "conv2"
  top: "pool2"
  pooling_param {
    pool: MAX
    kernel_size: 3
    stride: 2
  }
}
layer {
  name: "norm2"
  type: "LRN"
  bottom: "pool2"
  top: "norm2"
  lrn_param {
    local_size: 5
    alpha: 0.0001
    beta: 0.75
  }
}
layer {
  name: "conv3"
  type: "Convolution"
  bottom: "norm2"
  top: "conv3"
  param {
    lr_mult: 1
    decay_mult: 1
  }
  param {
    lr_mult: 2
    decay_mult: 0
  }
  convolution_param {
    num_output: 384
    pad: 1
    kernel_size: 3
    weight_filler {
      type: "gaussian"
      std: 0.01
    }
    bias_filler {
      type: "constant"
      value: 0
    }
  }
}
layer {
  name: "relu3"
  type: "ReLU"
  bottom: "conv3"
  top: "conv3"
}
layer {
  name: "conv4"
  type: "Convolution"
  bottom: "conv3"
  top: "conv4"
  param {
    lr_mult: 1
    decay_mult: 1
  }
  param {
    lr_mult: 2
    decay_mult: 0
  }
  convolution_param {
    num_output: 384
    pad: 1
    kernel_size: 3
    group: 2
    weight_filler {
      type: "gaussian"
      std: 0.01
    }
    bias_filler {
      type: "constant"
      value: 1
    }
  }
}
layer {
  name: "relu4"
  type: "ReLU"
  bottom: "conv4"
  top: "conv4"
}
layer {
  name: "conv5"
  type: "Convolution"
  bottom: "conv4"
  top: "conv5"
  param {
    lr_mult: 1
    decay_mult: 1
  }
  param {
    lr_mult: 2
    decay_mult: 0
  }
  convolution_param {
    num_output: 256
    pad: 1
    kernel_size: 3
    group: 2
    weight_filler {
      type: "gaussian"
      std: 0.01
    }
    bias_filler {
      type: "constant"
      value: 1
    }
  }
}
layer {
  name: "relu5"
  type: "ReLU"
  bottom: "conv5"
  top: "conv5"
}
layer {
  name: "pool5"
  type: "Pooling"
  bottom: "conv5"
  top: "pool5"
  pooling_param {
    pool: MAX
    kernel_size: 3
    stride: 2
  }
}
layer {
  name: "fc6"
  type: "InnerProduct"
  bottom: "pool5"
  top: "fc6"
  param {
    lr_mult: 1
    decay_mult: 1
  }
  param {
    lr_mult: 2
    decay_mult: 0
  }
  inner_product_param {
    num_output: 4096
    weight_filler {
      type: "gaussian"
      std: 0.005
    }
    bias_filler {
      type: "constant"
      value: 1
    }
  }
}
layer {
  name: "relu6"
  type: "ReLU"
  bottom: "fc6"
  top: "fc6"
}
layer {
  name: "drop6"
  type: "Dropout"
  bottom: "fc6"
  top: "fc6"
  dropout_param {
    dropout_ratio: 0.5
  }
}
layer {
  name: "fc7"
  type: "InnerProduct"
  bottom: "fc6"
  top: "fc7"
  param {
    lr_mult: 1
    decay_mult: 1
  }
  param {
    lr_mult: 2
    decay_mult: 0
  }
  inner_product_param {
    num_output: 4096
    weight_filler {
      type: "gaussian"
      std: 0.005
    }
    bias_filler {
      type: "constant"
      value: 1
    }
  }
}
layer {
  name: "relu7"
  type: "ReLU"
  bottom: "fc7"
  top: "fc7"
}
layer {
  name: "drop7"
  type: "Dropout"
  bottom: "fc7"
  top: "fc7"
  dropout_param {
    dropout_ratio: 0.5
  }
}
layer {
  name: "fc8"
  type: "InnerProduct"
  bottom: "fc7"
  top: "fc8"
  param {
    lr_mult: 1
    decay_mult: 1
  }
  param {
    lr_mult: 2
    decay_mult: 0
  }
  inner_product_param {
    num_output: 3
    weight_filler {
      type: "gaussian"
      std: 0.01
    }
    bias_filler {
      type: "constant"
      value: 0
    }
  }
}
layer {
  name: "loss"
  type: "SoftmaxWithLoss"
  bottom: "fc8"
  bottom: "label"
  top: "loss"
}
I0315 10:24:18.078557  4688 layer_factory.cpp:58] Creating layer data
I0315 10:24:18.078557  4688 db_lmdb.cpp:40] Opened lmdb C:\caffe\bin\images\train_lmdb
I0315 10:24:18.078557  4688 net.cpp:86] Creating Layer data
I0315 10:24:18.078557  4688 net.cpp:382] data -> data
I0315 10:24:18.078557  4688 net.cpp:382] data -> label
I0315 10:24:18.078557  4688 data_transformer.cpp:25] Loading mean file from: images/mean.binaryproto
I0315 10:24:18.130439  4688 common.cpp:36] System entropy source not available, using fallback algorithm to generate seed instead.
I0315 10:24:18.131443  4688 data_layer.cpp:45] output data size: 256,3,64,64
I0315 10:24:18.160377  4688 net.cpp:124] Setting up data
I0315 10:24:18.160377  4688 net.cpp:131] Top shape: 256 3 64 64 (3145728)
I0315 10:24:18.160377  4688 net.cpp:131] Top shape: 256 (256)
I0315 10:24:18.160377  4688 net.cpp:139] Memory required for data: 12583936
I0315 10:24:18.160377  4688 layer_factory.cpp:58] Creating layer conv1
I0315 10:24:18.160377  4688 net.cpp:86] Creating Layer conv1
I0315 10:24:18.160377  4688 net.cpp:408] conv1 <- data
I0315 10:24:18.160377  4688 net.cpp:382] conv1 -> conv1
I0315 10:24:18.161370  5504 common.cpp:36] System entropy source not available, using fallback algorithm to generate seed instead.
I0315 10:24:18.164377  4688 net.cpp:124] Setting up conv1
I0315 10:24:18.164377  4688 net.cpp:131] Top shape: 256 96 14 14 (4816896)
I0315 10:24:18.164377  4688 net.cpp:139] Memory required for data: 31851520
I0315 10:24:18.164377  4688 layer_factory.cpp:58] Creating layer relu1
I0315 10:24:18.164377  4688 net.cpp:86] Creating Layer relu1
I0315 10:24:18.164377  4688 net.cpp:408] relu1 <- conv1
I0315 10:24:18.164377  4688 net.cpp:369] relu1 -> conv1 (in-place)
I0315 10:24:18.164377  4688 net.cpp:124] Setting up relu1
I0315 10:24:18.164377  4688 net.cpp:131] Top shape: 256 96 14 14 (4816896)
I0315 10:24:18.164377  4688 net.cpp:139] Memory required for data: 51119104
I0315 10:24:18.164377  4688 layer_factory.cpp:58] Creating layer pool1
I0315 10:24:18.164377  4688 net.cpp:86] Creating Layer pool1
I0315 10:24:18.164377  4688 net.cpp:408] pool1 <- conv1
I0315 10:24:18.164377  4688 net.cpp:382] pool1 -> pool1
I0315 10:24:18.164377  4688 net.cpp:124] Setting up pool1
I0315 10:24:18.164377  4688 net.cpp:131] Top shape: 256 96 7 7 (1204224)
I0315 10:24:18.164377  4688 net.cpp:139] Memory required for data: 55936000
I0315 10:24:18.164377  4688 layer_factory.cpp:58] Creating layer norm1
I0315 10:24:18.164377  4688 net.cpp:86] Creating Layer norm1
I0315 10:24:18.164377  4688 net.cpp:408] norm1 <- pool1
I0315 10:24:18.164377  4688 net.cpp:382] norm1 -> norm1
I0315 10:24:18.164377  4688 net.cpp:124] Setting up norm1
I0315 10:24:18.164377  4688 net.cpp:131] Top shape: 256 96 7 7 (1204224)
I0315 10:24:18.164377  4688 net.cpp:139] Memory required for data: 60752896
I0315 10:24:18.164377  4688 layer_factory.cpp:58] Creating layer conv2
I0315 10:24:18.164377  4688 net.cpp:86] Creating Layer conv2
I0315 10:24:18.164377  4688 net.cpp:408] conv2 <- norm1
I0315 10:24:18.164377  4688 net.cpp:382] conv2 -> conv2
I0315 10:24:18.170380  4688 net.cpp:124] Setting up conv2
I0315 10:24:18.170380  4688 net.cpp:131] Top shape: 256 256 7 7 (3211264)
I0315 10:24:18.170380  4688 net.cpp:139] Memory required for data: 73597952
I0315 10:24:18.170380  4688 layer_factory.cpp:58] Creating layer relu2
I0315 10:24:18.170380  4688 net.cpp:86] Creating Layer relu2
I0315 10:24:18.170380  4688 net.cpp:408] relu2 <- conv2
I0315 10:24:18.170380  4688 net.cpp:369] relu2 -> conv2 (in-place)
I0315 10:24:18.170380  4688 net.cpp:124] Setting up relu2
I0315 10:24:18.170380  4688 net.cpp:131] Top shape: 256 256 7 7 (3211264)
I0315 10:24:18.170380  4688 net.cpp:139] Memory required for data: 86443008
I0315 10:24:18.170380  4688 layer_factory.cpp:58] Creating layer pool2
I0315 10:24:18.170380  4688 net.cpp:86] Creating Layer pool2
I0315 10:24:18.170380  4688 net.cpp:408] pool2 <- conv2
I0315 10:24:18.170380  4688 net.cpp:382] pool2 -> pool2
I0315 10:24:18.170380  4688 net.cpp:124] Setting up pool2
I0315 10:24:18.170380  4688 net.cpp:131] Top shape: 256 256 3 3 (589824)
I0315 10:24:18.170380  4688 net.cpp:139] Memory required for data: 88802304
I0315 10:24:18.170380  4688 layer_factory.cpp:58] Creating layer norm2
I0315 10:24:18.170380  4688 net.cpp:86] Creating Layer norm2
I0315 10:24:18.170380  4688 net.cpp:408] norm2 <- pool2
I0315 10:24:18.170380  4688 net.cpp:382] norm2 -> norm2
I0315 10:24:18.170380  4688 net.cpp:124] Setting up norm2
I0315 10:24:18.170380  4688 net.cpp:131] Top shape: 256 256 3 3 (589824)
I0315 10:24:18.170380  4688 net.cpp:139] Memory required for data: 91161600
I0315 10:24:18.170380  4688 layer_factory.cpp:58] Creating layer conv3
I0315 10:24:18.170380  4688 net.cpp:86] Creating Layer conv3
I0315 10:24:18.170380  4688 net.cpp:408] conv3 <- norm2
I0315 10:24:18.170380  4688 net.cpp:382] conv3 -> conv3
I0315 10:24:18.176384  5504 data_layer.cpp:73] Restarting data prefetching from start.
I0315 10:24:18.185386  4688 net.cpp:124] Setting up conv3
I0315 10:24:18.185386  4688 net.cpp:131] Top shape: 256 384 3 3 (884736)
I0315 10:24:18.185386  4688 net.cpp:139] Memory required for data: 94700544
I0315 10:24:18.185386  4688 layer_factory.cpp:58] Creating layer relu3
I0315 10:24:18.185386  4688 net.cpp:86] Creating Layer relu3
I0315 10:24:18.185386  4688 net.cpp:408] relu3 <- conv3
I0315 10:24:18.185386  4688 net.cpp:369] relu3 -> conv3 (in-place)
I0315 10:24:18.185386  4688 net.cpp:124] Setting up relu3
I0315 10:24:18.186394  4688 net.cpp:131] Top shape: 256 384 3 3 (884736)
I0315 10:24:18.186394  4688 net.cpp:139] Memory required for data: 98239488
I0315 10:24:18.186394  4688 layer_factory.cpp:58] Creating layer conv4
I0315 10:24:18.186394  4688 net.cpp:86] Creating Layer conv4
I0315 10:24:18.186394  4688 net.cpp:408] conv4 <- conv3
I0315 10:24:18.186394  4688 net.cpp:382] conv4 -> conv4
I0315 10:24:18.192390  5504 data_layer.cpp:73] Restarting data prefetching from start.
I0315 10:24:18.197396  4688 net.cpp:124] Setting up conv4
I0315 10:24:18.197396  4688 net.cpp:131] Top shape: 256 384 3 3 (884736)
I0315 10:24:18.197396  4688 net.cpp:139] Memory required for data: 101778432
I0315 10:24:18.197396  4688 layer_factory.cpp:58] Creating layer relu4
I0315 10:24:18.197396  4688 net.cpp:86] Creating Layer relu4
I0315 10:24:18.197396  4688 net.cpp:408] relu4 <- conv4
I0315 10:24:18.197396  4688 net.cpp:369] relu4 -> conv4 (in-place)
I0315 10:24:18.197396  4688 net.cpp:124] Setting up relu4
I0315 10:24:18.197896  4688 net.cpp:131] Top shape: 256 384 3 3 (884736)
I0315 10:24:18.197896  4688 net.cpp:139] Memory required for data: 105317376
I0315 10:24:18.197896  4688 layer_factory.cpp:58] Creating layer conv5
I0315 10:24:18.197896  4688 net.cpp:86] Creating Layer conv5
I0315 10:24:18.197896  4688 net.cpp:408] conv5 <- conv4
I0315 10:24:18.197896  4688 net.cpp:382] conv5 -> conv5
I0315 10:24:18.205404  4688 net.cpp:124] Setting up conv5
I0315 10:24:18.205404  4688 net.cpp:131] Top shape: 256 256 3 3 (589824)
I0315 10:24:18.205404  4688 net.cpp:139] Memory required for data: 107676672
I0315 10:24:18.205404  4688 layer_factory.cpp:58] Creating layer relu5
I0315 10:24:18.205404  4688 net.cpp:86] Creating Layer relu5
I0315 10:24:18.205404  4688 net.cpp:408] relu5 <- conv5
I0315 10:24:18.205404  4688 net.cpp:369] relu5 -> conv5 (in-place)
I0315 10:24:18.205404  4688 net.cpp:124] Setting up relu5
I0315 10:24:18.205404  4688 net.cpp:131] Top shape: 256 256 3 3 (589824)
I0315 10:24:18.205404  4688 net.cpp:139] Memory required for data: 110035968
I0315 10:24:18.205404  4688 layer_factory.cpp:58] Creating layer pool5
I0315 10:24:18.205404  4688 net.cpp:86] Creating Layer pool5
I0315 10:24:18.205404  4688 net.cpp:408] pool5 <- conv5
I0315 10:24:18.205404  4688 net.cpp:382] pool5 -> pool5
I0315 10:24:18.205404  4688 net.cpp:124] Setting up pool5
I0315 10:24:18.205404  4688 net.cpp:131] Top shape: 256 256 1 1 (65536)
I0315 10:24:18.205404  4688 net.cpp:139] Memory required for data: 110298112
I0315 10:24:18.205404  4688 layer_factory.cpp:58] Creating layer fc6
I0315 10:24:18.205404  4688 net.cpp:86] Creating Layer fc6
I0315 10:24:18.205404  4688 net.cpp:408] fc6 <- pool5
I0315 10:24:18.205905  4688 net.cpp:382] fc6 -> fc6
I0315 10:24:18.207412  5504 data_layer.cpp:73] Restarting data prefetching from start.
I0315 10:24:18.223546  4688 net.cpp:124] Setting up fc6
I0315 10:24:18.223546  4688 net.cpp:131] Top shape: 256 4096 (1048576)
I0315 10:24:18.223546  4688 net.cpp:139] Memory required for data: 114492416
I0315 10:24:18.223546  4688 layer_factory.cpp:58] Creating layer relu6
I0315 10:24:18.223546  4688 net.cpp:86] Creating Layer relu6
I0315 10:24:18.223546  4688 net.cpp:408] relu6 <- fc6
I0315 10:24:18.223546  4688 net.cpp:369] relu6 -> fc6 (in-place)
I0315 10:24:18.223546  5504 data_layer.cpp:73] Restarting data prefetching from start.
I0315 10:24:18.223546  4688 net.cpp:124] Setting up relu6
I0315 10:24:18.223546  4688 net.cpp:131] Top shape: 256 4096 (1048576)
I0315 10:24:18.223546  4688 net.cpp:139] Memory required for data: 118686720
I0315 10:24:18.223546  4688 layer_factory.cpp:58] Creating layer drop6
I0315 10:24:18.223546  4688 net.cpp:86] Creating Layer drop6
I0315 10:24:18.223546  4688 net.cpp:408] drop6 <- fc6
I0315 10:24:18.223546  4688 net.cpp:369] drop6 -> fc6 (in-place)
I0315 10:24:18.223546  4688 net.cpp:124] Setting up drop6
I0315 10:24:18.223546  4688 net.cpp:131] Top shape: 256 4096 (1048576)
I0315 10:24:18.223546  4688 net.cpp:139] Memory required for data: 122881024
I0315 10:24:18.223546  4688 layer_factory.cpp:58] Creating layer fc7
I0315 10:24:18.223546  4688 net.cpp:86] Creating Layer fc7
I0315 10:24:18.223546  4688 net.cpp:408] fc7 <- fc6
I0315 10:24:18.223546  4688 net.cpp:382] fc7 -> fc7
I0315 10:24:18.472244  4688 net.cpp:124] Setting up fc7
I0315 10:24:18.472244  4688 net.cpp:131] Top shape: 256 4096 (1048576)
I0315 10:24:18.472244  4688 net.cpp:139] Memory required for data: 127075328
I0315 10:24:18.472244  4688 layer_factory.cpp:58] Creating layer relu7
I0315 10:24:18.472244  4688 net.cpp:86] Creating Layer relu7
I0315 10:24:18.472244  4688 net.cpp:408] relu7 <- fc7
I0315 10:24:18.472244  4688 net.cpp:369] relu7 -> fc7 (in-place)
I0315 10:24:18.472244  4688 net.cpp:124] Setting up relu7
I0315 10:24:18.472244  4688 net.cpp:131] Top shape: 256 4096 (1048576)
I0315 10:24:18.472244  4688 net.cpp:139] Memory required for data: 131269632
I0315 10:24:18.473245  4688 layer_factory.cpp:58] Creating layer drop7
I0315 10:24:18.473245  4688 net.cpp:86] Creating Layer drop7
I0315 10:24:18.473245  4688 net.cpp:408] drop7 <- fc7
I0315 10:24:18.473245  4688 net.cpp:369] drop7 -> fc7 (in-place)
I0315 10:24:18.473245  4688 net.cpp:124] Setting up drop7
I0315 10:24:18.473245  4688 net.cpp:131] Top shape: 256 4096 (1048576)
I0315 10:24:18.473245  4688 net.cpp:139] Memory required for data: 135463936
I0315 10:24:18.473245  4688 layer_factory.cpp:58] Creating layer fc8
I0315 10:24:18.473245  4688 net.cpp:86] Creating Layer fc8
I0315 10:24:18.473245  4688 net.cpp:408] fc8 <- fc7
I0315 10:24:18.473245  4688 net.cpp:382] fc8 -> fc8
I0315 10:24:18.473245  4688 net.cpp:124] Setting up fc8
I0315 10:24:18.473245  4688 net.cpp:131] Top shape: 256 3 (768)
I0315 10:24:18.473245  4688 net.cpp:139] Memory required for data: 135467008
I0315 10:24:18.473245  4688 layer_factory.cpp:58] Creating layer loss
I0315 10:24:18.473245  4688 net.cpp:86] Creating Layer loss
I0315 10:24:18.473245  4688 net.cpp:408] loss <- fc8
I0315 10:24:18.473245  4688 net.cpp:408] loss <- label
I0315 10:24:18.473245  4688 net.cpp:382] loss -> loss
I0315 10:24:18.473245  4688 layer_factory.cpp:58] Creating layer loss
…
I0315 10:24:18.474265  4688 net.cpp:296] The NetState phase (1) differed from the phase (0) specified by a rule in layer data
I0315 10:24:18.474265  4688 net.cpp:53] Initializing net from parameters: 
name: "CaffeNet"
state {
  phase: TEST
}
layer {
  name: "data"
  type: "Data"
  top: "data"
  top: "label"
  include {
    phase: TEST
  }
  transform_param {
    mirror: false
    crop_size: 64
    mean_file: "images/mean.binaryproto"
  }
  data_param {
    source: "C:\\caffe\\bin\\images\\val_lmdb"
    batch_size: 50
    backend: LMDB
  }
}
layer {
  name: "conv1"
  type: "Convolution"
  bottom: "data"
  top: "conv1"
  param {
    lr_mult: 1
    decay_mult: 1
  }
  param {
    lr_mult: 2
    decay_mult: 0
  }
  convolution_param {
    num_output: 96
    kernel_size: 11
    stride: 4
    weight_filler {
      type: "gaussian"
      std: 0.01
    }
    bias_filler {
      type: "constant"
      value: 0
    }
  }
}
layer {
  name: "relu1"
  type: "ReLU"
  bottom: "conv1"
  top: "conv1"
}
layer {
  name: "pool1"
  type: "Pooling"
  bottom: "conv1"
  top: "pool1"
  pooling_param {
    pool: MAX
    kernel_size: 3
    stride: 2
  }
}
layer {
  name: "norm1"
  type: "LRN"
  bottom: "pool1"
  top: "norm1"
  lrn_param {
    local_size: 5
    alpha: 0.0001
    beta: 0.75
  }
}
layer {
  name: "conv2"
  type: "Convolution"
  bottom: "norm1"
  top: "conv2"
  param {
    lr_mult: 1
    decay_mult: 1
  }
  param {
    lr_mult: 2
    decay_mult: 0
  }
  convolution_param {
    num_output: 256
    pad: 2
    kernel_size: 5
    group: 2
    weight_filler {
      type: "gaussian"
      std: 0.01
    }
    bias_filler {
      type: "constant"
      value: 1
    }
  }
}
layer {
  name: "relu2"
  type: "ReLU"
  bottom: "conv2"
  top: "conv2"
}
layer {
  name: "pool2"
  type: "Pooling"
  bottom: "conv2"
  top: "pool2"
  pooling_param {
    pool: MAX
    kernel_size: 3
    stride: 2
  }
}
layer {
  name: "norm2"
  type: "LRN"
  bottom: "pool2"
  top: "norm2"
  lrn_param {
    local_size: 5
    alpha: 0.0001
    beta: 0.75
  }
}
layer {
  name: "conv3"
  type: "Convolution"
  bottom: "norm2"
  top: "conv3"
  param {
    lr_mult: 1
    decay_mult: 1
  }
  param {
    lr_mult: 2
    decay_mult: 0
  }
  convolution_param {
    num_output: 384
    pad: 1
    kernel_size: 3
    weight_filler {
      type: "gaussian"
      std: 0.01
    }
    bias_filler {
      type: "constant"
      value: 0
    }
  }
}
layer {
  name: "relu3"
  type: "ReLU"
  bottom: "conv3"
  top: "conv3"
}
layer {
  name: "conv4"
  type: "Convolution"
  bottom: "conv3"
  top: "conv4"
  param {
    lr_mult: 1
    decay_mult: 1
  }
  param {
    lr_mult: 2
    decay_mult: 0
  }
  convolution_param {
    num_output: 384
    pad: 1
    kernel_size: 3
    group: 2
    weight_filler {
      type: "gaussian"
      std: 0.01
    }
    bias_filler {
      type: "constant"
      value: 1
    }
  }
}
layer {
  name: "relu4"
  type: "ReLU"
  bottom: "conv4"
  top: "conv4"
}
layer {
  name: "conv5"
  type: "Convolution"
  bottom: "conv4"
  top: "conv5"
  param {
    lr_mult: 1
    decay_mult: 1
  }
  param {
    lr_mult: 2
    decay_mult: 0
  }
  convolution_param {
    num_output: 256
    pad: 1
    kernel_size: 3
    group: 2
    weight_filler {
      type: "gaussian"
      std: 0.01
    }
    bias_filler {
      type: "constant"
      value: 1
    }
  }
}
layer {
  name: "relu5"
  type: "ReLU"
  bottom: "conv5"
  top: "conv5"
}
layer {
  name: "pool5"
  type: "Pooling"
  bottom: "conv5"
  top: "pool5"
  pooling_param {
    pool: MAX
    kernel_size: 3
    stride: 2
  }
}
layer {
  name: "fc6"
  type: "InnerProduct"
  bottom: "pool5"
  top: "fc6"
  param {
    lr_mult: 1
    decay_mult: 1
  }
  param {
    lr_mult: 2
    decay_mult: 0
  }
  inner_product_param {
    num_output: 4096
    weight_filler {
      type: "gaussian"
      std: 0.005
    }
    bias_filler {
      type: "constant"
      value: 1
    }
  }
}
layer {
  name: "relu6"
  type: "ReLU"
  bottom: "fc6"
  top: "fc6"
}
layer {
  name: "drop6"
  type: "Dropout"
  bottom: "fc6"
  top: "fc6"
  dropout_param {
    dropout_ratio: 0.5
  }
}
layer {
  name: "fc7"
  type: "InnerProduct"
  bottom: "fc6"
  top: "fc7"
  param {
    lr_mult: 1
    decay_mult: 1
  }
  param {
    lr_mult: 2
    decay_mult: 0
  }
  inner_product_param {
    num_output: 4096
    weight_filler {
      type: "gaussian"
      std: 0.005
    }
    bias_filler {
      type: "constant"
      value: 1
    }
  }
}
layer {
  name: "relu7"
  type: "ReLU"
  bottom: "fc7"
  top: "fc7"
}
layer {
  name: "drop7"
  type: "Dropout"
  bottom: "fc7"
  top: "fc7"
  dropout_param {
    dropout_ratio: 0.5
  }
}
layer {
  name: "fc8"
  type: "InnerProduct"
  bottom: "fc7"
  top: "fc8"
  param {
    lr_mult: 1
    decay_mult: 1
  }
  param {
    lr_mult: 2
    decay_mult: 0
  }
  inner_product_param {
    num_output: 3
    weight_filler {
      type: "gaussian"
      std: 0.01
    }
    bias_filler {
      type: "constant"
      value: 0
    }
  }
}
layer {
  name: "accuracy"
  type: "Accuracy"
  bottom: "fc8"
  bottom: "label"
  top: "accuracy"
  include {
    phase: TEST
  }
}
layer {
  name: "loss"
  type: "SoftmaxWithLoss"
  bottom: "fc8"
  bottom: "label"
  top: "loss"
}
I0315 10:24:18.475245  4688 layer_factory.cpp:58] Creating layer data
I0315 10:24:18.475245  4688 db_lmdb.cpp:40] Opened lmdb C:\caffe\bin\images\val_lmdb
I0315 10:24:18.476244  4688 net.cpp:86] Creating Layer data
I0315 10:24:18.476244  4688 net.cpp:382] data -> data
I0315 10:24:18.476244  4688 net.cpp:382] data -> label
I0315 10:24:18.476244  4688 data_transformer.cpp:25] Loading mean file from: images/mean.binaryproto
I0315 10:24:18.476244  4688 data_layer.cpp:45] output data size: 50,3,64,64
I0315 10:24:18.484256  4688 net.cpp:124] Setting up data
I0315 10:24:18.484256  4688 net.cpp:131] Top shape: 50 3 64 64 (614400)
I0315 10:24:18.484256  4688 net.cpp:131] Top shape: 50 (50)
I0315 10:24:18.484256  4688 net.cpp:139] Memory required for data: 2457800
I0315 10:24:18.484256  4688 layer_factory.cpp:58] Creating layer label_data_1_split
I0315 10:24:18.484256  4688 net.cpp:86] Creating Layer label_data_1_split
I0315 10:24:18.484256  4688 net.cpp:408] label_data_1_split <- label
I0315 10:24:18.484256  4688 net.cpp:382] label_data_1_split -> label_data_1_split_0
I0315 10:24:18.485255  4688 net.cpp:382] label_data_1_split -> label_data_1_split_1
I0315 10:24:18.485255  4688 net.cpp:124] Setting up label_data_1_split
I0315 10:24:18.485255  4688 net.cpp:131] Top shape: 50 (50)
I0315 10:24:18.485255  4688 net.cpp:131] Top shape: 50 (50)
I0315 10:24:18.485255  4688 net.cpp:139] Memory required for data: 2458200
I0315 10:24:18.485255  4688 layer_factory.cpp:58] Creating layer conv1
I0315 10:24:18.485255  4688 net.cpp:86] Creating Layer conv1
I0315 10:24:18.485255  4688 net.cpp:408] conv1 <- data
I0315 10:24:18.485255  4688 net.cpp:382] conv1 -> conv1
I0315 10:24:18.485255  4688 net.cpp:124] Setting up conv1
I0315 10:24:18.485255  4688 net.cpp:131] Top shape: 50 96 14 14 (940800)
I0315 10:24:18.485255  4688 net.cpp:139] Memory required for data: 6221400
I0315 10:24:18.485255  4688 layer_factory.cpp:58] Creating layer relu1
I0315 10:24:18.485255  4688 net.cpp:86] Creating Layer relu1
I0315 10:24:18.485255  4688 net.cpp:408] relu1 <- conv1
I0315 10:24:18.485255  8080 common.cpp:36] System entropy source not available, using fallback algorithm to generate seed instead.
I0315 10:24:18.486256  4688 net.cpp:369] relu1 -> conv1 (in-place)
I0315 10:24:18.486256  4688 net.cpp:124] Setting up relu1
I0315 10:24:18.486256  4688 net.cpp:131] Top shape: 50 96 14 14 (940800)
I0315 10:24:18.486256  4688 net.cpp:139] Memory required for data: 9984600
I0315 10:24:18.486256  4688 layer_factory.cpp:58] Creating layer pool1
I0315 10:24:18.486256  4688 net.cpp:86] Creating Layer pool1
I0315 10:24:18.486256  4688 net.cpp:408] pool1 <- conv1
I0315 10:24:18.486256  4688 net.cpp:382] pool1 -> pool1
I0315 10:24:18.486256  4688 net.cpp:124] Setting up pool1
I0315 10:24:18.486256  4688 net.cpp:131] Top shape: 50 96 7 7 (235200)
I0315 10:24:18.486256  4688 net.cpp:139] Memory required for data: 10925400
I0315 10:24:18.486256  4688 layer_factory.cpp:58] Creating layer norm1
I0315 10:24:18.486256  4688 net.cpp:86] Creating Layer norm1
I0315 10:24:18.486256  4688 net.cpp:408] norm1 <- pool1
I0315 10:24:18.486256  4688 net.cpp:382] norm1 -> norm1
I0315 10:24:18.486256  4688 net.cpp:124] Setting up norm1
I0315 10:24:18.486256  4688 net.cpp:131] Top shape: 50 96 7 7 (235200)
I0315 10:24:18.486256  4688 net.cpp:139] Memory required for data: 11866200
I0315 10:24:18.486256  4688 layer_factory.cpp:58] Creating layer conv2
I0315 10:24:18.486256  4688 net.cpp:86] Creating Layer conv2
I0315 10:24:18.486256  4688 net.cpp:408] conv2 <- norm1
I0315 10:24:18.486256  4688 net.cpp:382] conv2 -> conv2
I0315 10:24:18.492758  4688 net.cpp:124] Setting up conv2
I0315 10:24:18.492758  4688 net.cpp:131] Top shape: 50 256 7 7 (627200)
I0315 10:24:18.492758  4688 net.cpp:139] Memory required for data: 14375000
I0315 10:24:18.492758  4688 layer_factory.cpp:58] Creating layer relu2
I0315 10:24:18.492758  4688 net.cpp:86] Creating Layer relu2
I0315 10:24:18.492758  4688 net.cpp:408] relu2 <- conv2
I0315 10:24:18.492758  4688 net.cpp:369] relu2 -> conv2 (in-place)
I0315 10:24:18.492758  4688 net.cpp:124] Setting up relu2
I0315 10:24:18.492758  4688 net.cpp:131] Top shape: 50 256 7 7 (627200)
I0315 10:24:18.492758  4688 net.cpp:139] Memory required for data: 16883800
I0315 10:24:18.492758  4688 layer_factory.cpp:58] Creating layer pool2
I0315 10:24:18.492758  4688 net.cpp:86] Creating Layer pool2
I0315 10:24:18.492758  4688 net.cpp:408] pool2 <- conv2
I0315 10:24:18.492758  4688 net.cpp:382] pool2 -> pool2
I0315 10:24:18.492758  4688 net.cpp:124] Setting up pool2
I0315 10:24:18.492758  4688 net.cpp:131] Top shape: 50 256 3 3 (115200)
I0315 10:24:18.492758  4688 net.cpp:139] Memory required for data: 17344600
I0315 10:24:18.492758  4688 layer_factory.cpp:58] Creating layer norm2
I0315 10:24:18.492758  4688 net.cpp:86] Creating Layer norm2
I0315 10:24:18.492758  4688 net.cpp:408] norm2 <- pool2
I0315 10:24:18.492758  4688 net.cpp:382] norm2 -> norm2
I0315 10:24:18.493257  4688 net.cpp:124] Setting up norm2
I0315 10:24:18.493257  4688 net.cpp:131] Top shape: 50 256 3 3 (115200)
I0315 10:24:18.493257  4688 net.cpp:139] Memory required for data: 17805400
I0315 10:24:18.493257  4688 layer_factory.cpp:58] Creating layer conv3
I0315 10:24:18.493257  4688 net.cpp:86] Creating Layer conv3
I0315 10:24:18.493257  4688 net.cpp:408] conv3 <- norm2
I0315 10:24:18.493257  4688 net.cpp:382] conv3 -> conv3
I0315 10:24:18.495759  8080 data_layer.cpp:73] Restarting data prefetching from start.
I0315 10:24:18.507273  4688 net.cpp:124] Setting up conv3
I0315 10:24:18.507273  4688 net.cpp:131] Top shape: 50 384 3 3 (172800)
I0315 10:24:18.507273  4688 net.cpp:139] Memory required for data: 18496600
I0315 10:24:18.507273  4688 layer_factory.cpp:58] Creating layer relu3
I0315 10:24:18.507273  4688 net.cpp:86] Creating Layer relu3
I0315 10:24:18.507273  4688 net.cpp:408] relu3 <- conv3
I0315 10:24:18.507773  4688 net.cpp:369] relu3 -> conv3 (in-place)
I0315 10:24:18.507773  4688 net.cpp:124] Setting up relu3
I0315 10:24:18.507773  4688 net.cpp:131] Top shape: 50 384 3 3 (172800)
I0315 10:24:18.507773  4688 net.cpp:139] Memory required for data: 19187800
I0315 10:24:18.507773  4688 layer_factory.cpp:58] Creating layer conv4
I0315 10:24:18.507773  4688 net.cpp:86] Creating Layer conv4
I0315 10:24:18.507773  4688 net.cpp:408] conv4 <- conv3
I0315 10:24:18.507773  4688 net.cpp:382] conv4 -> conv4
I0315 10:24:18.519215  4688 net.cpp:124] Setting up conv4
I0315 10:24:18.519215  4688 net.cpp:131] Top shape: 50 384 3 3 (172800)
I0315 10:24:18.519215  4688 net.cpp:139] Memory required for data: 19879000
I0315 10:24:18.519215  4688 layer_factory.cpp:58] Creating layer relu4
I0315 10:24:18.519215  4688 net.cpp:86] Creating Layer relu4
I0315 10:24:18.519215  4688 net.cpp:408] relu4 <- conv4
I0315 10:24:18.519215  4688 net.cpp:369] relu4 -> conv4 (in-place)
I0315 10:24:18.519215  4688 net.cpp:124] Setting up relu4
I0315 10:24:18.519215  4688 net.cpp:131] Top shape: 50 384 3 3 (172800)
I0315 10:24:18.519215  4688 net.cpp:139] Memory required for data: 20570200
I0315 10:24:18.519215  4688 layer_factory.cpp:58] Creating layer conv5
I0315 10:24:18.519215  4688 net.cpp:86] Creating Layer conv5
I0315 10:24:18.519215  4688 net.cpp:408] conv5 <- conv4
I0315 10:24:18.519215  4688 net.cpp:382] conv5 -> conv5
I0315 10:24:18.527226  4688 net.cpp:124] Setting up conv5
I0315 10:24:18.527226  4688 net.cpp:131] Top shape: 50 256 3 3 (115200)
I0315 10:24:18.527226  4688 net.cpp:139] Memory required for data: 21031000
I0315 10:24:18.527226  4688 layer_factory.cpp:58] Creating layer relu5
I0315 10:24:18.527226  4688 net.cpp:86] Creating Layer relu5
I0315 10:24:18.527226  4688 net.cpp:408] relu5 <- conv5
I0315 10:24:18.527226  4688 net.cpp:369] relu5 -> conv5 (in-place)
I0315 10:24:18.527226  4688 net.cpp:124] Setting up relu5
I0315 10:24:18.527226  4688 net.cpp:131] Top shape: 50 256 3 3 (115200)
I0315 10:24:18.527226  4688 net.cpp:139] Memory required for data: 21491800
I0315 10:24:18.527226  4688 layer_factory.cpp:58] Creating layer pool5
I0315 10:24:18.527226  4688 net.cpp:86] Creating Layer pool5
I0315 10:24:18.527226  4688 net.cpp:408] pool5 <- conv5
I0315 10:24:18.527226  4688 net.cpp:382] pool5 -> pool5
I0315 10:24:18.527226  4688 net.cpp:124] Setting up pool5
I0315 10:24:18.527226  4688 net.cpp:131] Top shape: 50 256 1 1 (12800)
I0315 10:24:18.527226  4688 net.cpp:139] Memory required for data: 21543000
I0315 10:24:18.527226  4688 layer_factory.cpp:58] Creating layer fc6
I0315 10:24:18.527226  4688 net.cpp:86] Creating Layer fc6
I0315 10:24:18.527226  4688 net.cpp:408] fc6 <- pool5
I0315 10:24:18.527226  4688 net.cpp:382] fc6 -> fc6
I0315 10:24:18.543948  4688 net.cpp:124] Setting up fc6
I0315 10:24:18.543948  4688 net.cpp:131] Top shape: 50 4096 (204800)
I0315 10:24:18.543948  4688 net.cpp:139] Memory required for data: 22362200
I0315 10:24:18.543948  4688 layer_factory.cpp:58] Creating layer relu6
I0315 10:24:18.543948  4688 net.cpp:86] Creating Layer relu6
I0315 10:24:18.543948  4688 net.cpp:408] relu6 <- fc6
I0315 10:24:18.543948  4688 net.cpp:369] relu6 -> fc6 (in-place)
I0315 10:24:18.543948  4688 net.cpp:124] Setting up relu6
I0315 10:24:18.543948  4688 net.cpp:131] Top shape: 50 4096 (204800)
I0315 10:24:18.543948  4688 net.cpp:139] Memory required for data: 23181400
I0315 10:24:18.543948  4688 layer_factory.cpp:58] Creating layer drop6
I0315 10:24:18.543948  4688 net.cpp:86] Creating Layer drop6
I0315 10:24:18.543948  4688 net.cpp:408] drop6 <- fc6
I0315 10:24:18.544950  4688 net.cpp:369] drop6 -> fc6 (in-place)
I0315 10:24:18.544950  4688 net.cpp:124] Setting up drop6
I0315 10:24:18.544950  4688 net.cpp:131] Top shape: 50 4096 (204800)
I0315 10:24:18.544950  4688 net.cpp:139] Memory required for data: 24000600
I0315 10:24:18.544950  4688 layer_factory.cpp:58] Creating layer fc7
I0315 10:24:18.544950  4688 net.cpp:86] Creating Layer fc7
I0315 10:24:18.544950  4688 net.cpp:408] fc7 <- fc6
I0315 10:24:18.544950  4688 net.cpp:382] fc7 -> fc7
I0315 10:24:18.794155  4688 net.cpp:124] Setting up fc7
I0315 10:24:18.794155  4688 net.cpp:131] Top shape: 50 4096 (204800)
I0315 10:24:18.794155  4688 net.cpp:139] Memory required for data: 24819800
I0315 10:24:18.794155  4688 layer_factory.cpp:58] Creating layer relu7
I0315 10:24:18.794155  4688 net.cpp:86] Creating Layer relu7
I0315 10:24:18.794155  4688 net.cpp:408] relu7 <- fc7
I0315 10:24:18.794155  4688 net.cpp:369] relu7 -> fc7 (in-place)
I0315 10:24:18.794155  4688 net.cpp:124] Setting up relu7
I0315 10:24:18.794155  4688 net.cpp:131] Top shape: 50 4096 (204800)
I0315 10:24:18.794155  4688 net.cpp:139] Memory required for data: 25639000
I0315 10:24:18.794155  4688 layer_factory.cpp:58] Creating layer drop7
I0315 10:24:18.794155  4688 net.cpp:86] Creating Layer drop7
I0315 10:24:18.794155  4688 net.cpp:408] drop7 <- fc7
I0315 10:24:18.794155  4688 net.cpp:369] drop7 -> fc7 (in-place)
I0315 10:24:18.794155  4688 net.cpp:124] Setting up drop7
I0315 10:24:18.794155  4688 net.cpp:131] Top shape: 50 4096 (204800)
I0315 10:24:18.794155  4688 net.cpp:139] Memory required for data: 26458200
I0315 10:24:18.794155  4688 layer_factory.cpp:58] Creating layer fc8
I0315 10:24:18.794155  4688 net.cpp:86] Creating Layer fc8
I0315 10:24:18.794155  4688 net.cpp:408] fc8 <- fc7
I0315 10:24:18.794155  4688 net.cpp:382] fc8 -> fc8
I0315 10:24:18.794656  4688 net.cpp:124] Setting up fc8
I0315 10:24:18.794656  4688 net.cpp:131] Top shape: 50 3 (150)
I0315 10:24:18.794656  4688 net.cpp:139] Memory required for data: 26458800
I0315 10:24:18.794656  4688 layer_factory.cpp:58] Creating layer fc8_fc8_0_split
I0315 10:24:18.794656  4688 net.cpp:86] Creating Layer fc8_fc8_0_split
I0315 10:24:18.794656  4688 net.cpp:408] fc8_fc8_0_split <- fc8
I0315 10:24:18.794656  4688 net.cpp:382] fc8_fc8_0_split -> fc8_fc8_0_split_0
I0315 10:24:18.794656  4688 net.cpp:382] fc8_fc8_0_split -> fc8_fc8_0_split_1
I0315 10:24:18.795155  4688 net.cpp:124] Setting up fc8_fc8_0_split
I0315 10:24:18.795155  4688 net.cpp:131] Top shape: 50 3 (150)
I0315 10:24:18.795155  4688 net.cpp:131] Top shape: 50 3 (150)
I0315 10:24:18.795155  4688 net.cpp:139] Memory required for data: 26460000
I0315 10:24:18.795155  4688 layer_factory.cpp:58] Creating layer accuracy
I0315 10:24:18.795155  4688 net.cpp:86] Creating Layer accuracy
I0315 10:24:18.795155  4688 net.cpp:408] accuracy <- fc8_fc8_0_split_0
I0315 10:24:18.795155  4688 net.cpp:408] accuracy <- label_data_1_split_0
I0315 10:24:18.795155  4688 net.cpp:382] accuracy -> accuracy
…
